model/keypoint_classifier/keypoint_classifier.tflite (tflite, 6720 bytes, 6 tensors)

sequential/dense/BiasAdd/ReadVariableOp f4 [20]
00000000: cc54 413f 8855 46bf d2fc 15bd 83f9 163e
00000010: bacf 64bf 2392 05be 2615 65be 8b58 00bf
00000020: 5422 a13e fd3f 0ebf 5afd 16bf 5128 f23e
00000030: 2833 13bf 56a0 bdbf 6aae 10bf 490a 60bd
00000040: d9f2 d33e a02b 3ebf 92fb 09bf 6486 30bf
0.75520015 -0.7747426 -0.03661806 0.14743619 -0.89379466 -0.13044028 -0.22371349 -0.50135106
0.31471503 -0.5556639 -0.58980334 0.47296384 -0.57499933 -1.4814556 -0.56516135 -0.05469731
0.41396216 -0.74285316 -0.5389949 -0.68955064

sequential/dense_2/BiasAdd/ReadVariableOp f4 [8]
00000000: fe27 d3be f78e 3bbf 44e2 2c3f ccf9 f8be
00000010: e31b 683f 5f65 c63e cece ab3c 79a7 dc3e
-0.4124145 -0.7326502 0.67532754 -0.4862808 0.9066755 0.38749215 0.020972636 0.43096521

sequential/dense_1/BiasAdd/ReadVariableOp f4 [10]
00000000: 8ef8 423e f9a2 cbbe d32d 1a3f e24e 72be
00000010: 03d7 893e aa5b 7f3f 339d 333f 19ed f93e
00000020: f1f7 093f 3016 723e
0.19040129 -0.39772776 0.6022617 -0.23662904 0.26921853 0.99749243 0.7016174 0.48813704
0.53893954 0.23641276

sequential/dense/MatMul f4 [20, 42]
00000000: 10bc ad3c 1edd e6bd f6fc bb3d 6133 c03f
00000010: 8c6d bc3d 7608 4a3f 936d d83d 5299 153f
00000020: c14b b73d 5cf9 003f 61df 81bd c43e 533e
00000030: 68c6 85bc 7267 1e3e c6c8 07bd 44a9 803d
00000040: 217a 80bd 607d b6bf c4ba 90bc 8d53 283e
00000050: 692a 36bd 9df7 173e aea5 ec3c 3b9e 873d
00000060: 1618 e33d 8301 8f3d 6e6f cc3d 8428 153e
00000070: 93eb 7abd b51c ff3d a727 bfbd 253c a13d
00000080: 4824 1b3d 7d09 cc3d c32b 283e 2991 2a3e
00000090: 328f f33c f1d7 253e b537 8e3b c84f 1e3e
000000a0: 5a25 773d 549e 9d3d 46a9 8ebe ecfe 90bd
000000b0: 0f5c f83e 7c0d ff3f 8bd7 c13d b336 693f
000000c0: 6973 9bbd 3a77 043f 10e8 5bbe f424 df3e
000000d0: 83d2 1ebd ea4f 113f b31b 3a3d 2575 253e
000000e0: 9604 6d3d 95cc 81be fdd0 663c 7968 00bf
000000f0: ef88 6dbd 7aaf 933e e866 33bc c0e0 113d
00000100: 0bdc 0a3d 3d59 09bd f991 78bc 4244 b8bd
00000110: 548a ccbd eb07 1f3d f9e8 023c d207 26be
00000120: 0bfb 853c 37de 9bbd 1137 883c 688f 9bbd
00000130: 7f9d d1bb 9334 edbe 0b21 b23c 43aa a0be
00000140: 4cb7 f93c b210 4bbe bae1 04bd 97c1 c4bd
00000150: 8777 2bbe 21de 8ebe fed1 983f 8a79 ba3e
00000160: bd78 2d3f ab69 4d3e 6704 093f abd9 2d3e
00000170: 8bb7 023f 23ef 3b3e 4503 04be ac19 f13d
00000180: 6429 b03b f64c 83bd ac1e 0e3e 7b80 9bbe
00000190: 2035 8e3e 64c7 3ebf 1ccf 98be 1cec c5b9
000001a0: ee97 c3bd d2da 0cbe f550 213e 6557 1bbe
000001b0: 55d0 873e e688 23bd a47a aebe 3aae a9bd
000001c0: 9ace 22be b016 32be 1254 b73d e35a edbd
000001d0: 38bd ec3d f733 0fbd d1dc dcbe 9b4f 6abe
000001e0: 6932 52be 358d 02be d370 26be 0b7b adbc
000001f0: 0222 42bc 0084 113d d281 943e 7c41 9f3e
00000200: cfdd 31be ef55 05be 05ac 26be 3222 c5be
00000210: c3fd 31be 1494 21bf bd0b 59be b7e5 7abf
00000220: 95ea a6be 4ba4 fe3d d13a 2b3e 7cb8 24bd
00000230: ff95 c63e 862d 0bbe 48d4 ca3e 9fc6 80be
00000240: 3331 0cbe d4eb 1a3e c90d 103e 1a54 9ebc
00000250: 00b2 183e 863d 563d f742 803e eccd 5c3c
00000260: 9d10 9d3e 3064 453e 22d2 b93c e695 543d
00000270: 85d8 3e3d d418 313e 0d4b 1dbe 6b43 2a3e
00000280: 2424 103f d6f9 6a3e 8734 983e 53ba d53d
00000290: 372c 963d 5cec 4d3e 1080 4cbe e749 373e
000002a0: b4bb 0bbe 1df3 83be 224c 1c3f 1f9d 4abf
000002b0: 577f e03e 78bc 10bf 51e1 fb3e 9d08 f5be
000002c0: 8606 ab3e 106d 88be 5571 883e 2d52 dbbd
000002d0: f410 173c e2bb 19bc 415d 83be f350 733e
000002e0: 82d6 bdbe 1412 4f3e 1295 a33e ef07 dbbd
000002f0: b433 e43d 01ae adbd cdf4 98bd 4f7e dd3d
00000300: fcc6 10be dea8 cb3d 6cfb 793e 8d87 20be
00000310: 3417 ea3d 507e f6bd e357 9fbd 47e5 593d
00000320: 53e7 4ebd 1f75 873d 6ff5 c33d d098 5ebe
00000330: ee8d 263e c5af 21be 5b76 043e abd4 10bd
00000340: cc99 033e 6ad8 ea3c 599f 86be 9ad8 e1bd
00000350: 32c5 d23d 9aaf 443f 9174 513d b84b b53e
00000360: 0a6e f03c 200a 863e bfe1 153c 4cb0 773e
00000370: 5730 a0bc 591c 1d3e a0e8 d33c 5062 eb3d
00000380: 98d6 203c ba01 b53c 57db 30be 5363 edbf
00000390: 74b3 d639 8e87 163e 19f1 a4bc 48f5 f83d
000003a0: 3d39 1e3d 1839 bb3d 4f4d f53c a0f0 1d3d
000003b0: 3464 6cbb 1eae 203e 7526 efbc 7841 113e
000003c0: ea11 003d 77cd aa3d 04e0 023b cbd6 863c
000003d0: cc5e 02bd ca21 173e 2913 39bd 596e 033e
000003e0: 36a9 7abc 49e1 923d 0464 8e3c 29d3 d0bb
000003f0: 948c d5bd 0e5b 073e 02b9 fd3e f52e 02bf
0.02120784 -0.112726435 0.09179108 1.501568 0.09200582 0.7891916 0.105677746 0.58437073
0.08949996 0.5038049 -0.06341434 0.20629412 -0.016329959 0.15469149 -0.033150457 0.06282285
-0.06273294 -1.4257011 -0.017667182 0.16438122 -0.04447404 0.1484055 0.028887596 0.06621977
0.110885784 0.0698271 0.09982191 0.14566237 -0.061259817 0.12456647 -0.09333735 0.078728
0.037876397 0.09962747 0.16422944 0.16656937 0.029731367 0.16195656 0.004340137 0.15460122
0.060338356 0.07696214 -0.2786352 -0.070798725 0.48507735 1.992599 0.0946494 0.9109909
-0.07590372 0.51744425 -0.21475244 0.4358288 -0.03877498 0.56762564 0.045436572 0.16157968
0.0578657 -0.25351396 0.014087913 -0.5015941 -0.05799192 0.28844815 -0.010949828 0.03561473
0.033901256 -0.03353237 -0.015171521 -0.08997394 -0.099873215 0.03882591 0.007990115 -0.1621392
0.016355058 -0.076107435 0.01662782 -0.07595712 -0.006396949 -0.46329173 0.021744272 -0.313799
0.03048291 -0.19830588 -0.032441832 -0.09607237 -0.16744815 -0.27903846 1.1939085 0.36420852
0.67762357 0.2005984 0.5352234 0.16977565 0.51061314 0.18352942 -0.12891872 0.11772475
0.005376028 -0.064111635 0.13878888 -0.3037146 0.27774906 -0.74522996 -0.29845512 -0.00037750683
-0.09550463 -0.13755348 0.15753539 -0.15170057 0.26526132 -0.03992548 -0.34077942 -0.08285184
-0.15899125 -0.17391467 0.08951582 -0.11589601 0.11559528 -0.034961667 -0.4313722 -0.2288193
-0.20527042 -0.12749179 -0.16253977 -0.021176836 -0.011848928 0.035526276 0.29005295 0.31104648
-0.1736977 -0.13021062 -0.16276558 -0.3850265 -0.17381959 -0.63116574 -0.21195884 -0.9800677
-0.32600847 0.1243368 0.16721655 -0.040215 0.38786313 -0.13591585 0.39615083 -0.25151536
-0.13690643 0.15129024 0.14067759 -0.019327212 0.14911652 0.052304767 0.2505109 0.01347683
0.30676737 0.192765 0.022683207 0.051900767 0.046593208 0.17294627 -0.15360661 0.1662728
0.56305146 0.22946867 0.29727575 0.10435929 0.07332652 0.20109695 -0.19970727 0.17899285
-0.13645822 -0.25771418 0.6105367 -0.79146 0.43847153 -0.5653758 0.4919534 -0.47858134
0.33403414 -0.26645708 0.26648965 -0.10709033 0.0092203505 -0.009383174 -0.25657085 0.23761348
-0.3707772 0.2022174 0.3194967 -0.106948726 0.11142674 -0.08480454 -0.07468567 0.10815107
-0.14138407 0.09944318 0.24412316 -0.15676709 0.11430207 -0.12035811 -0.07780435 0.05319717
-0.050513577 0.06614136 0.09568297 -0.21737981 0.1626508 -0.15789707 0.12935774 -0.035359066
0.12851638 0.028667647 -0.26293448 -0.110276416 0.10291518 0.76830447 0.051136557 0.3540933
0.029349346 0.261796 0.00914806 0.24188346 -0.0195543 0.15342845 0.02586776 0.11493361
0.009816788 0.02209555 -0.17271172 -1.8545936 0.00040950964 0.14700148 -0.020134496 0.12156159
0.038628805 0.09141749 0.02994409 0.038559556 -0.0036070468 0.1569142 -0.029193142 0.1418513
0.031267084 0.083399706 0.001996995 0.016459843 -0.031828687 0.14758983 -0.04518429 0.12835063
-0.015299132 0.07171876 0.017381676 -0.0063728285 -0.10427204 0.13218328 0.49555212 -0.508529

sequential/dense_1/MatMul f4 [10, 20]
00000000: 17a9 1d3f 8d44 9f3f f139 0e3f 81da 263e
00000010: 34c6 913f 4fe5 6d3e 0c73 d23e 618d d4be
00000020: 19e5 82be 6fe3 293f 3630 5abf 98d3 e43e
00000030: 96a9 b2be b6fb b43d 880f 85bc 6bc3 16be
00000040: fe6d 943e 7091 823e 35c2 afbd 49f9 503e
00000050: 1d33 0d3f 4f7e 843f 65b2 8e3d 9ec6 433e
00000060: 9a16 49be fb7b c33d 8452 c8bc 01fc 9d3e
00000070: 1c79 a03e 20be 113f b809 833e 2c01 7d3f
00000080: 0356 713f 68fa 713f 38ac 9a3f 5c27 c33e
00000090: 2958 0c3f a510 a23e 36f0 113f 34ca 173f
000000a0: 9238 09bf 1088 153f 9af2 6d3e 99ac 873b
000000b0: ceb5 473f 95d2 c3bd db7c a0bf 74aa 58bb
000000c0: 52e0 ebbe 073a 1b3e 825c 003f bca7 edbe
000000d0: 760f 8d3e ec7f 413e 3dcf b93e 80f3 94bd
000000e0: bf78 95bd b1c1 9a3e 3f6f 593e c39f 9fbf
000000f0: d416 623d cca7 5d3e 6d6b 2f3e 51ac 3dbe
00000100: 6f16 4d3f a5fc 64be 1ed2 9e3f 9aab 9b3e
00000110: 0491 933f fd8a ff3e 6f47 0e3f a029 d63d
00000120: 163c a93e 6b54 b43d f892 acbe 2598 8abc
00000130: 21a0 d6be ce5d 033e 72e6 70be fa52 7a3e
00000140: e6b6 343f 2f8b 0b3e a7d4 1b3f a372 463d
00000150: 1811 93be 4569 cc3f b692 dd3d 1ff6 d53e
00000160: a24c 833e 2093 233f 633b a0be a3e4 e03e
00000170: 4920 233f a532 71bc 5da9 013f 2fa4 fe3d
00000180: b458 193f beaa b63e 4632 5e3e 3e79 1c3c
00000190: 3caf bc3e 0dd8 1c3c 9bc0 c63e 7286 a13c
000001a0: be37 f83e 7dc3 8b3e df04 563e e95c 6dbf
000001b0: a61e 503d 5ea9 b2be 9d94 f2bd 78ad 0c3f
000001c0: ccad 9dbf 858a f03e ea96 41bf 7b73 2b3e
000001d0: 263e 2b3e 96aa f6bc 72bb 68bf 0109 1fbe
000001e0: 56a4 153f 6368 413e 24c3 ed3d 0f05 833f
000001f0: 5d0b b43e 9a2f 3c3f f3a5 493e 9629 343e
00000200: 06c2 2d3f 2495 26bf d944 493f 104e ae3e
00000210: 2a71 b9bc 47b4 c93e 2c04 813e 9978 8d3f
00000220: ec62 643f cbd7 b33d 0305 303f 7204 d2bd
00000230: 23eb 08be 5094 4bbe b19b 203f 8463 ab3d
00000240: 1596 503e 64fa 823e f322 6e3e aa65 58bf
00000250: 3bc2 9fbe 6247 a83d 8c6e c13d 7007 1bbe
00000260: 9092 993f bfcd 223f da00 773f e281 223d
00000270: 88e8 8bbf 54a0 a93f a296 b9bf 28c9 193f
00000280: 377d 133f eb21 293e 5415 a93d 76fd 8ebc
00000290: f84c 1a3b 57b7 6e3f d406 bfbd 0015 91bf
000002a0: c58a 0b3f adfe 14bc ded3 c93e fb93 703c
000002b0: 6787 9c3e efb1 223e c953 7ebd f60b 863d
000002c0: 4502 513e fd51 67bd 050c 1abf 72f2 34be
000002d0: 8030 afbf e68e d6bf 4671 1cbf ec56 3b3d
000002e0: d27d acbe 4cc2 1cbf fe19 28be 5a95 69be
000002f0: cd6a 94be 3495 5b3e a1b9 be3e d94f 5dbf
00000300: 6b66 7f3e d89c c53e 78a6 e23e cc0a ee3e
00000310: 51c7 64bf fe3a 9e3e 92dd 6e3e 074c 1b3f
0.61586136 1.2442795 0.5555716 0.1629429 1.1388612 0.23232006 0.411034 -0.41514114
-0.25565413 0.6636266 -0.85229814 0.44692683 -0.3489501 0.088370726 -0.016242757 -0.14722984
0.28990167 0.25501585 -0.08581964 0.20407595 0.5515612 1.0351046 0.0696762 0.19118735
-0.19637528 0.09545132 -0.024453409 0.30856326 0.313424 0.5693073 0.25593352 0.98829913
0.9427187 0.94522715 1.2083807 0.38115966 0.5482202 0.31653324 0.5700716 0.5929291
-0.53601944 0.5841074 0.23237076 0.0041404483 0.78011787 -0.0956165 -1.2538103 -0.0033060582
-0.4606958 0.15158854 0.50141156 -0.46417034 0.27550858 0.18896455 0.36290923 -0.072730064
-0.07298421 0.302259 0.21233843 -1.247063 0.05519755 0.2164604 0.17130823 -0.18522765
0.80112356 -0.22362001 1.2407873 0.3040436 1.152863 0.49910727 0.5557775 0.10457158
0.33053654 0.08805164 -0.33705878 -0.016918251 -0.41919044 0.12828752 -0.23525408 0.24445716
0.7059158 0.13627313 0.60871357 0.04844917 -0.2872398 1.5969626 0.108189985 0.41789338
0.25644404 0.6389637 -0.31295308 0.43924436 0.6372114 -0.014721547 0.5064905 0.12433659
0.59900975 0.3567714 0.21698865 0.009550391 0.36852443 0.009572995 0.3881882 0.019717429
0.48480028 0.27297583 0.20900296 -0.92719895 0.05081048 -0.34894842 -0.11844752 0.5495219
-1.2318664 0.46980682 -0.756209 0.16743271 0.16722926 -0.030110639 -0.9091102 -0.15530778
0.5845388 0.18887477 0.11609486 1.0235919 0.3516492 0.73510134 0.19692211 0.17593989
0.6787418 -0.6507132 0.7862068 0.34043932 -0.022636969 0.39395353 0.25198495 1.1052428
0.8921344 0.087813936 0.6875765 -0.10254754 -0.13370948 -0.19880795 0.62737566 0.083685905
0.20369752 0.25581658 0.2325552 -0.8453013 -0.31202874 0.0821674 0.09444913 -0.15139556
1.1997852 0.63595194 0.96485674 0.039674647 -1.0930338 1.3252053 -1.4499094 0.60072565
0.5761294 0.16516845 0.08256021 -0.017454844 0.0023544412 0.93248504 -0.09327474 -1.1334534
0.5450862 -0.009093923 0.39419454 0.014683719 0.30572054 0.15888189 -0.062091623 0.0654525
0.20411022 -0.056474674 -0.6017459 -0.1767061 -1.3686676 -1.6762359 -0.6111034 0.045737192
-0.33689743 -0.61233974 -0.16416165 -0.2281088 -0.28987733 0.21443635 0.37251 -0.8644996
0.24941413 0.38596225 0.4426763 0.46492612 -0.8936663 0.30904382 0.2332671 0.60662884

sequential/dense_2/MatMul f4 [8, 10]
00000000: 7484 43be 2686 d43e 759c a8be d3f7 313f
00000010: 4c25 683f be3e 61bf 843f 913e a7ed 863e
00000020: 57c1 6bbe d947 31bf 968c f43e a619 303e
00000030: 4999 70be d1d0 053f fd5c 8abe 27a6 723e
00000040: ea3f d03e 7402 a93e d64a 09bd f9ad 4cbe
00000050: 43a7 4fbf d757 80be 9f74 d5bf 3925 a0be
00000060: 96c1 f03d 92e8 8d3f b30a d33e c1ba 0b3f
00000070: e9b7 f43e 6c3e 60bf 0c14 26bf c194 063f
00000080: ae2a 693f aba2 823e 261b f7be 777e 13bf
00000090: e73f 9ebf 8dca dc3e 4407 80bb b795 083f
000000a0: 436a 80be 9bd6 99bf 7dd8 67be ea44 5a3f
000000b0: 8cdd 3fbf 578c a4be e158 8b3f c293 69bf
000000c0: c1b5 54bf 1515 88bf a2b5 7c3f 1746 62bd
000000d0: e629 633d f65f 90bf d951 f33e 5ff0 363f
000000e0: 316e 7cbf d411 9dbf 44be c23e fdad a6bf
000000f0: 2de6 193f 9c59 7ebf d275 1739 d596 543f
00000100: db94 11bd f4d2 953e ae4f bbbf 0ead 2e3f
00000110: d73d 82bf 5b30 d23c 30cb 2dbf 2e6a 1d3f
00000120: 1cd8 8e3e d487 36bf c461 a6bf 3b06 ac3b
00000130: a4a4 8c3e 1aea 483c 12e5 d9bf 4e21 dc3e
-0.19093496 0.41508597 -0.32931867 0.69518775 0.9068191 -0.8798636 0.2836877 0.2635319
-0.23022972 -0.69250256 0.4776351 0.17197284 -0.23495974 0.52271754 -0.2702407 0.23696195
0.40673763 0.33009684 -0.033518635 -0.1998824 -0.81114596 -0.25067016 -1.6676215 -0.312784
0.117556736 1.10866 0.412191 0.5458184 0.47796562 -0.8759525 -0.6487434 0.5257073
0.9108075 0.2551473 -0.482629 -0.57614845 -1.2363251 0.43123284 -0.003907116 0.53353447
-0.2508107 -1.2018617 -0.22641177 0.85261405 -0.7494743 -0.3213832 1.0886499 -0.91241086
-0.83089834 -1.0631434 0.9871465 -0.055242624 0.05545988 -1.1279285 0.47523382 0.7146053
-0.9860564 -1.2271066 0.38035786 -1.3021847 0.60116845 -0.99355483 0.00014444374 0.8304265
-0.03554235 0.29262507 -1.4633691 0.6823281 -1.0175122 0.025657823 -0.67888165 0.6149014
0.27899253 -0.7130101 -1.2998586 0.005249766 0.2746936 0.012262845 -1.7023032 0.4299416
